DESCRIPTION: CNN training, with data augmentation. 14 epochs, on all the dataset. Model: MNIST from the book "Hands on Machine Learning" (Géron).
Start time: 15:41:15

Original data loaded
Augmented data loaded
Converted y indexes to symbol IDs
All training data concatenated. Length:  936320
Converted y symbol IDs to same index system
Data scaled

Model: "sequential"
_________________________________________________________________
 Layer (type)                Output Shape              Param #   
=================================================================
 conv2d (Conv2D)             (936320, 32, 32, 32)      320       
                                                                 
 conv2d_1 (Conv2D)           (936320, 32, 32, 64)      18496     
                                                                 
 max_pooling2d (MaxPooling2D  (936320, 16, 16, 64)     0         
 )                                                               
                                                                 
 flatten (Flatten)           (936320, 16384)           0         
                                                                 
 dropout (Dropout)           (936320, 16384)           0         
                                                                 
 dense (Dense)               (936320, 128)             2097280   
                                                                 
 dropout_1 (Dropout)         (936320, 128)             0         
                                                                 
 dense_1 (Dense)             (936320, 369)             47601     
                                                                 
=================================================================
Total params: 2,163,697
Trainable params: 2,163,697
Non-trainable params: 0
_________________________________________________________________
None
Epoch 1/14

Epoch 1: loss improved from inf to 2.91061, saving model to ./models_cv/best_model.h5
29260/29260 - 2580s - loss: 2.9106 - accuracy: 0.2920 - 2580s/epoch - 88ms/step
…
