DESCRIPTION: CNN training, with data augmentation. 14 epochs, on all the dataset. Model: MNIST from the book "Hands on Machine Learning" (Géron).
Start time: 21:41:18

Original data loaded
Augmented data loaded
Converted y indexes to symbol IDs
Converted y symbol IDs to same index system
Data scaled

Model: "sequential"
_________________________________________________________________
 Layer (type)                Output Shape              Param #   
=================================================================
 conv2d (Conv2D)             (147600, 32, 32, 32)      320       
                                                                 
 conv2d_1 (Conv2D)           (147600, 32, 32, 64)      18496     
                                                                 
 max_pooling2d (MaxPooling2D  (147600, 16, 16, 64)     0         
 )                                                               
                                                                 
 flatten (Flatten)           (147600, 16384)           0         
                                                                 
 dropout (Dropout)           (147600, 16384)           0         
                                                                 
 dense (Dense)               (147600, 128)             2097280   
                                                                 
 dropout_1 (Dropout)         (147600, 128)             0         
                                                                 
 dense_1 (Dense)             (147600, 369)             47601     
                                                                 
=================================================================
Total params: 2,163,697
Trainable params: 2,163,697
Non-trainable params: 0
_________________________________________________________________
None
Epoch 1/14

Epoch 1: loss improved from inf to 2.83238, saving model to ./models_aug/best_model.h5
4613/4613 - 430s - loss: 2.8324 - accuracy: 0.3458 - 430s/epoch - 93ms/step
…
