DESCRIPTION: CNN training, using the original training set. Validation on test set. 14 epochs, on all the dataset. Model: MNIST from the book "Hands on Machine Learning" (Géron).
Start time: 09:13:36

Original data loaded
Converted y indexes to symbol IDs
Converted y symbol IDs to same index system
Data scaled

Model: "sequential"
_________________________________________________________________
 Layer (type)                Output Shape              Param #   
=================================================================
 conv2d (Conv2D)             (134586, 32, 32, 32)      320       
                                                                 
 conv2d_1 (Conv2D)           (134586, 32, 32, 64)      18496     
                                                                 
 max_pooling2d (MaxPooling2D  (134586, 16, 16, 64)     0         
 )                                                               
                                                                 
 flatten (Flatten)           (134586, 16384)           0         
                                                                 
 dropout (Dropout)           (134586, 16384)           0         
                                                                 
 dense (Dense)               (134586, 128)             2097280   
                                                                 
 dropout_1 (Dropout)         (134586, 128)             0         
                                                                 
 dense_1 (Dense)             (134586, 369)             47601     
                                                                 
=================================================================
Total params: 2,163,697
Trainable params: 2,163,697
Non-trainable params: 0
_________________________________________________________________
None
Epoch 1/14

Epoch 1: loss improved from inf to 2.34542, saving model to ./models_aug/best_model.h5
4206/4206 - 558s - loss: 2.3454 - accuracy: 0.4805 - 558s/epoch - 133ms/step
…
