DESCRIPTION: CNN training, with cross validation to obtain more robust statistics. Model: MNIST from the book "Hands on Machine Learning" (Géron).
Start time: 18:31:15

Fold 1 loaded----------------------------------------
Converted y indexes to symbol IDs
Converted y symbol IDs to same index system
Data scaled

Model: "sequential"
_________________________________________________________________
 Layer (type)                Output Shape              Param #   
=================================================================
 conv2d (Conv2D)             (107668, 32, 32, 32)      320       
                                                                 
 conv2d_1 (Conv2D)           (107668, 32, 32, 64)      18496     
                                                                 
 max_pooling2d (MaxPooling2D  (107668, 16, 16, 64)     0         
 )                                                               
                                                                 
 flatten (Flatten)           (107668, 16384)           0         
                                                                 
 dropout (Dropout)           (107668, 16384)           0         
                                                                 
 dense (Dense)               (107668, 128)             2097280   
                                                                 
 dropout_1 (Dropout)         (107668, 128)             0         
                                                                 
 dense_1 (Dense)             (107668, 369)             47601     
                                                                 
=================================================================
Total params: 2,163,697
Trainable params: 2,163,697
Non-trainable params: 0
_________________________________________________________________
None
Epoch 1/13

Epoch 1: loss improved from inf to 2.57383, saving model to ./models_cv/best_model_fold_1.h5
3365/3365 - 327s - loss: 2.5738 - accuracy: 0.4423 - 327s/epoch - 97ms/step
…
3365/3365 - 334s - loss: 0.7050 - accuracy: 0.7782 - 334s/epoch - 99ms/step
The model has been trained.
842/842 - 15s - 15s/epoch - 17ms/step
Fold 1 TOP1 accuracy: 0.802994278921168
Fold 1 MER accuracy: 0.8864700200609258

Fold 2 loaded----------------------------------------
Converted y indexes to symbol IDs
Converted y symbol IDs to same index system
Data scaled

Model: "sequential"
_________________________________________________________________
 Layer (type)                Output Shape              Param #   
=================================================================
 conv2d (Conv2D)             (107669, 32, 32, 32)      320       
                                                                 
 conv2d_1 (Conv2D)           (107669, 32, 32, 64)      18496     
                                                                 
 max_pooling2d (MaxPooling2D  (107669, 16, 16, 64)     0         
 )                                                               
                                                                 
 flatten (Flatten)           (107669, 16384)           0         
                                                                 
 dropout (Dropout)           (107669, 16384)           0         
                                                                 
 dense (Dense)               (107669, 128)             2097280   
                                                                 
 dropout_1 (Dropout)         (107669, 128)             0         
                                                                 
 dense_1 (Dense)             (107669, 369)             47601     
                                                                 
=================================================================
Total params: 2,163,697
Trainable params: 2,163,697
Non-trainable params: 0
_________________________________________________________________
None
Epoch 1/13

Epoch 1: loss improved from inf to 2.57443, saving model to ./models_cv/best_model_fold_2.h5
3365/3365 - 317s - loss: 2.5744 - accuracy: 0.4406 - 317s/epoch - 94ms/step
…
