DESCRIPTION: CNN training, with cross validation to obtain more robust statistics. Model: MNIST from the book "Hands on Machine Learning" (Géron).
Start time: 21:30:00

Fold 1 loaded----------------------------------------
Converted y indexes to symbol IDs
Converted y symbol IDs to same index system
Data scaled

Model: "sequential"
_________________________________________________________________
 Layer (type)                Output Shape              Param #   
=================================================================
 conv2d (Conv2D)             (107668, 32, 32, 32)      320       
                                                                 
 conv2d_1 (Conv2D)           (107668, 32, 32, 64)      18496     
                                                                 
 max_pooling2d (MaxPooling2D  (107668, 16, 16, 64)     0         
 )                                                               
                                                                 
 flatten (Flatten)           (107668, 16384)           0         
                                                                 
 dropout (Dropout)           (107668, 16384)           0         
                                                                 
 dense (Dense)               (107668, 128)             2097280   
                                                                 
 dropout_1 (Dropout)         (107668, 128)             0         
                                                                 
 dense_1 (Dense)             (107668, 369)             47601     
                                                                 
=================================================================
Total params: 2,163,697
Trainable params: 2,163,697
Non-trainable params: 0
_________________________________________________________________
None
Epoch 1/14

Epoch 1: loss improved from inf to 2.53446, saving model to ./models_cv/best_model_fold_1.h5
3365/3365 - 324s - loss: 2.5345 - accuracy: 0.4478 - 324s/epoch - 96ms/step
…
3365/3365 - 360s - loss: 0.6896 - accuracy: 0.7823 - 360s/epoch - 107ms/step
The model has been trained.
842/842 - 15s - 15s/epoch - 18ms/step
Fold 1 TOP1 accuracy: 0.8042945241102608
Fold 1 MER accuracy: 0.8901850063154766

Fold 2 loaded----------------------------------------
Converted y indexes to symbol IDs
Converted y symbol IDs to same index system
Data scaled

Model: "sequential"
_________________________________________________________________
 Layer (type)                Output Shape              Param #   
=================================================================
 conv2d (Conv2D)             (107669, 32, 32, 32)      320       
                                                                 
 conv2d_1 (Conv2D)           (107669, 32, 32, 64)      18496     
                                                                 
 max_pooling2d (MaxPooling2D  (107669, 16, 16, 64)     0         
 )                                                               
                                                                 
 flatten (Flatten)           (107669, 16384)           0         
                                                                 
 dropout (Dropout)           (107669, 16384)           0         
                                                                 
 dense (Dense)               (107669, 128)             2097280   
                                                                 
 dropout_1 (Dropout)         (107669, 128)             0         
                                                                 
 dense_1 (Dense)             (107669, 369)             47601     
                                                                 
=================================================================
Total params: 2,163,697
Trainable params: 2,163,697
Non-trainable params: 0
_________________________________________________________________
None
Epoch 1/14

Epoch 1: loss improved from inf to 2.60754, saving model to ./models_cv/best_model_fold_2.h5
3365/3365 - 327s - loss: 2.6075 - accuracy: 0.4349 - 327s/epoch - 97ms/step
…
