DESCRIPTION: CNN training, with data augmentation. Validation is used. Augmented dataset (600). Model: MNIST from the book "Hands on Machine Learning" (Géron).
Start time: 08:30:08

Original data loaded
Augmented data loaded
Converted y indexes to symbol IDs
Converted y symbol IDs to same index system
Data scaled

Model: "sequential"
_________________________________________________________________
 Layer (type)                Output Shape              Param #   
=================================================================
 conv2d (Conv2D)             (369000, 32, 32, 32)      320       
                                                                 
 conv2d_1 (Conv2D)           (369000, 32, 32, 64)      18496     
                                                                 
 max_pooling2d (MaxPooling2D  (369000, 16, 16, 64)     0         
 )                                                               
                                                                 
 flatten (Flatten)           (369000, 16384)           0         
                                                                 
 dropout (Dropout)           (369000, 16384)           0         
                                                                 
 dense (Dense)               (369000, 128)             2097280   
                                                                 
 dropout_1 (Dropout)         (369000, 128)             0         
                                                                 
 dense_1 (Dense)             (369000, 369)             47601     
                                                                 
=================================================================
Total params: 2,163,697
Trainable params: 2,163,697
Non-trainable params: 0
_________________________________________________________________
None
Epoch 1/50

Epoch 1: val_accuracy improved from -inf to 0.64772, saving model to ./models_aug/best_model.h5
10090/10090 - 1532s - loss: 2.6077 - accuracy: 0.3725 - val_loss: 1.2725 - val_accuracy: 0.6477 - 1532s/epoch - 152ms/step
…
