DESCRIPTION: CNN training, with data augmentation. 14 epochs, on all the dataset. Model: MNIST from the book "Hands on Machine Learning" (Géron).
Start time: 22:08:37

Original data loaded
Augmented data loaded
Converted y indexes to symbol IDs
Converted y symbol IDs to same index system
Data scaled

Model: "sequential"
_________________________________________________________________
 Layer (type)                Output Shape              Param #   
=================================================================
 conv2d (Conv2D)             (147600, 32, 32, 32)      320       
                                                                 
 max_pooling2d (MaxPooling2D  (147600, 16, 16, 32)     0         
 )                                                               
                                                                 
 conv2d_1 (Conv2D)           (147600, 16, 16, 64)      18496     
                                                                 
 max_pooling2d_1 (MaxPooling  (147600, 8, 8, 64)       0         
 2D)                                                             
                                                                 
 conv2d_2 (Conv2D)           (147600, 8, 8, 128)       73856     
                                                                 
 max_pooling2d_2 (MaxPooling  (147600, 4, 4, 128)      0         
 2D)                                                             
                                                                 
 flatten (Flatten)           (147600, 2048)            0         
                                                                 
 dense (Dense)               (147600, 369)             756081    
                                                                 
=================================================================
Total params: 848,753
Trainable params: 848,753
Non-trainable params: 0
_________________________________________________________________
None
Epoch 1/14

Epoch 1: loss improved from inf to 1.41991, saving model to ./models_aug/best_model.h5
4613/4613 - 397s - loss: 1.4199 - accuracy: 0.6363 - 397s/epoch - 86ms/step
…
