DESCRIPTION: CNN training, with cross validation to obtain more robust statistics. Model: MNIST from the book "Hands on Machine Learning" (Géron).
Start time: 11:47:02

Fold 1 loaded----------------------------------------
Converted y indexes to symbol IDs
Converted y symbol IDs to same index system
Data scaled

Model: "sequential"
_________________________________________________________________
 Layer (type)                Output Shape              Param #   
=================================================================
 conv2d (Conv2D)             (107668, 32, 32, 32)      320       
                                                                 
 conv2d_1 (Conv2D)           (107668, 32, 32, 64)      18496     
                                                                 
 max_pooling2d (MaxPooling2D  (107668, 16, 16, 64)     0         
 )                                                               
                                                                 
 flatten (Flatten)           (107668, 16384)           0         
                                                                 
 dropout (Dropout)           (107668, 16384)           0         
                                                                 
 dense (Dense)               (107668, 128)             2097280   
                                                                 
 dropout_1 (Dropout)         (107668, 128)             0         
                                                                 
 dense_1 (Dense)             (107668, 369)             47601     
                                                                 
=================================================================
Total params: 2,163,697
Trainable params: 2,163,697
Non-trainable params: 0
_________________________________________________________________
None
Epoch 1/20

Epoch 1: val_accuracy improved from -inf to 0.68750, saving model to ./models_cv/best_model_fold_1.h5
2945/2945 - 898s - loss: 2.8419 - accuracy: 0.3941 - val_loss: 1.2404 - val_accuracy: 0.6875 - 898s/epoch - 305ms/step
…
2945/2945 - 352s - loss: 0.6222 - accuracy: 0.7976 - val_loss: 0.8256 - val_accuracy: 0.7987 - 352s/epoch - 120ms/step
The model has been trained.
Best epoch number:  16
842/842 - 15s - 15s/epoch - 17ms/step
Fold 1 TOP1 accuracy: 0.79875919459098
Fold 1 MER accuracy: 0.8838323798201947

Fold 2 loaded----------------------------------------
Converted y indexes to symbol IDs
Converted y symbol IDs to same index system
Data scaled

Model: "sequential"
_________________________________________________________________
 Layer (type)                Output Shape              Param #   
=================================================================
 conv2d (Conv2D)             (107669, 32, 32, 32)      320       
                                                                 
 conv2d_1 (Conv2D)           (107669, 32, 32, 64)      18496     
                                                                 
 max_pooling2d (MaxPooling2D  (107669, 16, 16, 64)     0         
 )                                                               
                                                                 
 flatten (Flatten)           (107669, 16384)           0         
                                                                 
 dropout (Dropout)           (107669, 16384)           0         
                                                                 
 dense (Dense)               (107669, 128)             2097280   
                                                                 
 dropout_1 (Dropout)         (107669, 128)             0         
                                                                 
 dense_1 (Dense)             (107669, 369)             47601     
                                                                 
=================================================================
Total params: 2,163,697
Trainable params: 2,163,697
Non-trainable params: 0
_________________________________________________________________
None
Epoch 1/20

Epoch 1: val_accuracy improved from -inf to 0.69574, saving model to ./models_cv/best_model_fold_2.h5
2945/2945 - 292s - loss: 2.7194 - accuracy: 0.4192 - val_loss: 1.1863 - val_accuracy: 0.6957 - 292s/epoch - 99ms/step
…
