DESCRIPTION: CNN training, with data augmentation. Uses validation set. Model: CNN 4 layer
Start time: 08:32:19

Original data loaded
Augmented data loaded
Converted y indexes to symbol IDs
Converted y symbol IDs to same index system
Data scaled

Model: "sequential"
_________________________________________________________________
 Layer (type)                Output Shape              Param #   
=================================================================
 conv2d (Conv2D)             (369000, 32, 32, 32)      320       
                                                                 
 max_pooling2d (MaxPooling2D  (369000, 16, 16, 32)     0         
 )                                                               
                                                                 
 conv2d_1 (Conv2D)           (369000, 16, 16, 64)      18496     
                                                                 
 max_pooling2d_1 (MaxPooling  (369000, 8, 8, 64)       0         
 2D)                                                             
                                                                 
 conv2d_2 (Conv2D)           (369000, 8, 8, 128)       73856     
                                                                 
 max_pooling2d_2 (MaxPooling  (369000, 4, 4, 128)      0         
 2D)                                                             
                                                                 
 flatten (Flatten)           (369000, 2048)            0         
                                                                 
 dense (Dense)               (369000, 369)             756081    
                                                                 
=================================================================
Total params: 848,753
Trainable params: 848,753
Non-trainable params: 0
_________________________________________________________________
None
Epoch 1/50

Epoch 1: val_accuracy improved from -inf to 0.74485, saving model to ./models_aug/best_model.h5
10090/10090 - 908s - loss: 1.2211 - accuracy: 0.6702 - val_loss: 0.8497 - val_accuracy: 0.7448 - 908s/epoch - 90ms/step
…
