DESCRIPTION: CNN training, with data augmentation. Validation is used. Augmented dataset. Model: MNIST from the book "Hands on Machine Learning" (Géron).
Start time: 10:11:37

Original data loaded
Augmented data loaded
Converted y indexes to symbol IDs
Converted y symbol IDs to same index system
Data scaled

Model: "sequential"
_________________________________________________________________
 Layer (type)                Output Shape              Param #   
=================================================================
 conv2d (Conv2D)             (147600, 32, 32, 32)      320       
                                                                 
 conv2d_1 (Conv2D)           (147600, 32, 32, 64)      18496     
                                                                 
 max_pooling2d (MaxPooling2D  (147600, 16, 16, 64)     0         
 )                                                               
                                                                 
 flatten (Flatten)           (147600, 16384)           0         
                                                                 
 dropout (Dropout)           (147600, 16384)           0         
                                                                 
 dense (Dense)               (147600, 128)             2097280   
                                                                 
 dropout_1 (Dropout)         (147600, 128)             0         
                                                                 
 dense_1 (Dense)             (147600, 369)             47601     
                                                                 
=================================================================
Total params: 2,163,697
Trainable params: 2,163,697
Non-trainable params: 0
_________________________________________________________________
None
Epoch 1/20

Epoch 1: val_accuracy improved from -inf to 0.62748, saving model to ./models_aug/best_model.h5
4036/4036 - 1527s - loss: 3.0440 - accuracy: 0.3112 - val_loss: 1.4491 - val_accuracy: 0.6275 - 1527s/epoch - 378ms/step
…
