DESCRIPTION: CNN training, with data augmentation. Validation is used. Augmented dataset (600). Model: MNIST from the book "Hands on Machine Learning" (Géron).
Start time: 20:50:30

Original data loaded
Augmented data loaded
Converted y indexes to symbol IDs
Converted y symbol IDs to same index system
Data scaled

Model: "sequential"
_________________________________________________________________
 Layer (type)                Output Shape              Param #   
=================================================================
 conv2d (Conv2D)             (221400, 32, 32, 32)      320       
                                                                 
 conv2d_1 (Conv2D)           (221400, 32, 32, 64)      18496     
                                                                 
 max_pooling2d (MaxPooling2D  (221400, 16, 16, 64)     0         
 )                                                               
                                                                 
 flatten (Flatten)           (221400, 16384)           0         
                                                                 
 dropout (Dropout)           (221400, 16384)           0         
                                                                 
 dense (Dense)               (221400, 128)             2097280   
                                                                 
 dropout_1 (Dropout)         (221400, 128)             0         
                                                                 
 dense_1 (Dense)             (221400, 369)             47601     
                                                                 
=================================================================
Total params: 2,163,697
Trainable params: 2,163,697
Non-trainable params: 0
_________________________________________________________________
None
Epoch 1/50

Epoch 1: val_accuracy improved from -inf to 0.62623, saving model to ./models_aug/best_model.h5
6054/6054 - 1565s - loss: 2.9863 - accuracy: 0.3136 - val_loss: 1.4335 - val_accuracy: 0.6262 - 1565s/epoch - 258ms/step
…
