DESCRIPTION: CNN training, with cross validation to obtain more robust statistics. Model: 2-LAYER. Artículo: "HASYv2 dataset".
Start time: 11:40:53

Fold 1 loaded----------------------------------------
Converted y indexes to symbol IDs
Converted y symbol IDs to same index system
Data scaled

Model: "sequential"
_________________________________________________________________
 Layer (type)                Output Shape              Param #   
=================================================================
 conv2d (Conv2D)             (107668, 32, 32, 32)      320       
                                                                 
 max_pooling2d (MaxPooling2D  (107668, 16, 16, 32)     0         
 )                                                               
                                                                 
 conv2d_1 (Conv2D)           (107668, 16, 16, 64)      18496     
                                                                 
 max_pooling2d_1 (MaxPooling  (107668, 8, 8, 64)       0         
 2D)                                                             
                                                                 
 conv2d_2 (Conv2D)           (107668, 8, 8, 128)       73856     
                                                                 
 max_pooling2d_2 (MaxPooling  (107668, 4, 4, 128)      0         
 2D)                                                             
                                                                 
 flatten (Flatten)           (107668, 2048)            0         
                                                                 
 dense (Dense)               (107668, 369)             756081    
                                                                 
=================================================================
Total params: 848,753
Trainable params: 848,753
Non-trainable params: 0
_________________________________________________________________
None
Epoch 1/20

Epoch 1: val_accuracy improved from -inf to 0.78654, saving model to ./models_cv/best_model_fold_1.h5
2945/2945 - 395s - loss: 1.1959 - accuracy: 0.7076 - val_loss: 0.7602 - val_accuracy: 0.7865 - 395s/epoch - 134ms/step
…
2945/2945 - 308s - loss: 0.2848 - accuracy: 0.8957 - val_loss: 0.8523 - val_accuracy: 0.7993 - 308s/epoch - 105ms/step
The model has been trained.
Best epoch number:  3
842/842 - 27s - 27s/epoch - 32ms/step
Fold 1 TOP1 accuracy: 0.8101270525299057
Fold 1 MER accuracy: 0.8983579760754885

Fold 2 loaded----------------------------------------
Converted y indexes to symbol IDs
Converted y symbol IDs to same index system
Data scaled

Model: "sequential"
_________________________________________________________________
 Layer (type)                Output Shape              Param #   
=================================================================
 conv2d (Conv2D)             (107669, 32, 32, 32)      320       
                                                                 
 max_pooling2d (MaxPooling2D  (107669, 16, 16, 32)     0         
 )                                                               
                                                                 
 conv2d_1 (Conv2D)           (107669, 16, 16, 64)      18496     
                                                                 
 max_pooling2d_1 (MaxPooling  (107669, 8, 8, 64)       0         
 2D)                                                             
                                                                 
 conv2d_2 (Conv2D)           (107669, 8, 8, 128)       73856     
                                                                 
 max_pooling2d_2 (MaxPooling  (107669, 4, 4, 128)      0         
 2D)                                                             
                                                                 
 flatten (Flatten)           (107669, 2048)            0         
                                                                 
 dense (Dense)               (107669, 369)             756081    
                                                                 
=================================================================
Total params: 848,753
Trainable params: 848,753
Non-trainable params: 0
_________________________________________________________________
None
Epoch 1/20

Epoch 1: val_accuracy improved from -inf to 0.78535, saving model to ./models_cv/best_model_fold_2.h5
2945/2945 - 373s - loss: 1.2225 - accuracy: 0.7065 - val_loss: 0.7775 - val_accuracy: 0.7853 - 373s/epoch - 127ms/step
…
